models/segmentation_model_weights.pth (torch, 41956 bytes, 7 tensors)

encoder.0.weight f4 [16, 1, 3, 3]
00000000: 72f4 b2be 0709 a7bd 1c0d 3fbe a124 fcbd
00000010: 9c57 693e 692f 4bbe 628b a2be d721 a53e
00000020: 56fd a1be e8d0 3b3d f013 9cbe 2b1e 2e3e
00000030: 6b40 0f3e f51b 443e d375 893e bbf0 3e3e
00000040: 1428 913e 14b7 943e 7f69 943e 7079 94bd
00000050: a2f6 2c3e 19a6 c3bc 7bd5 393e 314a 97be
00000060: 992f 9abe 7692 3e3d 131f 53be 0afa 0c3d
00000070: 0f72 e5bb 49de 243e 3bc8 b9be b5d4 623e
00000080: 49fd 5cbe 6510 053c 6082 febc a720 843e
00000090: 6fef 7dbd d5e3 a33d 98d2 683e 8aa4 d43c
000000a0: 6652 1abd c4aa b93e 025d 763d 6cd2 7cbe
000000b0: 79fc a9bc 763b 553e ee69 713e 728e c43d
000000c0: 4f0f 80be a2a7 86bc a870 80be 0d79 723e
000000d0: d589 4d3e 42f4 87be ba0a fe3c b928 d2bd
000000e0: d582 e23c 17ad 9ebc b061 1ebe 2f88 893e
000000f0: e60e ae3e 6fce 7f3e 6d44 e73d 50b6 a03e
00000100: 8f4f 843e dd7c c53c 5f8e abbb f8fc a7be
00000110: 0f69 4a3c 43cf 9dbe 1d30 f73d 7b76 d13d
00000120: 7b06 a63e 2bbb 3bbe a48d 49be c126 adbd
00000130: ead2 8c3d 0216 b8be e518 9fbc e156 adbe
00000140: 26d4 f43d efc6 e13c 9844 2cbe cff1 1ebe
00000150: 4cf0 21be 875e 84be 9ed0 91be 865a 653e
00000160: 583b 1d3e 1b81 d1bd 15b5 91be 2545 cfbd
00000170: 4bd4 053e 1917 003e 5604 3abe d128 c53d
00000180: 2a41 913c 4b31 4ebe efc7 443e 5b66 aabe
00000190: 0c32 a3be 804f 883e 893b 1f3e 8fbe 963e
000001a0: 3217 6abe 11d1 a4be 8320 9bbe cfcc 97be
000001b0: bc4f 3b3e b19c 3fbd 0bfb fabc 1445 263e
000001c0: 93d9 e0bd 5319 993e 2825 5a3e a761 5abe
000001d0: 46a0 a8be eb7e ad3e 0c01 ee3d 5c3f 993e
000001e0: bccf 7f3e 7279 d23d f94b 82be 915d 333e
000001f0: 438c 32be 20f3 b03b 6b47 e5bd 1708 94bd
00000200: e30a 3cbe db9b aabe 367b 023e a137 053d
00000210: 4251 96bd 38ed fc3c a95e 7fbe 600d dd3c
00000220: 2963 7cbe 6330 b3bc e6f8 0f3e 1461 6f3e
00000230: 33c7 a0be 3eb9 403e 354c 92be 7053 00bc
-0.34952122 -0.08156019 -0.18657345 -0.12311674 0.22787327 -0.19842304 -0.31746966 0.3225238
-0.31638592 0.045853525 -0.3048396 0.17003696 0.13989417 0.1915129 0.26847705 0.18646519
0.2835089 0.29045928 0.28986737 -0.07249725 0.16890958 -0.023882912 0.18147843 -0.2954879
-0.3011444 0.046526395 -0.20617323 0.034418143 -0.0070021222 0.1610042 -0.36285576 0.22151454
-0.21580996 0.008121585 -0.031068027 0.25806162 -0.06199592 0.0800244 0.22736585 0.025957365
-0.037676238 0.36263096 0.060147293 -0.24689645 -0.020750271 0.20823464 0.23575565 0.09597482
-0.2501168 -0.016437355 -0.2508595 0.2367899 0.2007211 -0.2655354 0.031010974 -0.102616735
0.027650276 -0.019369645 -0.15466952 0.26861712 0.33995742 0.24981092 0.11292348 0.31389093
0.25841948 0.024107391 -0.005235478 -0.32810187 0.0123541495 -0.3082219 0.12069724 0.102276765
0.3242682 -0.18333118 -0.19682938 -0.08454657 0.06876166 -0.3595429 -0.01942105 -0.33855346
0.119545266 0.02756068 -0.16823041 -0.1552193 -0.15814322 -0.2585337 -0.28479475 0.22397813
0.15354669 -0.10229703 -0.28458467 -0.1012061 0.13069265 0.12508811 -0.18165717 0.09626926
0.017731268 -0.20135991 0.19216894 -0.33281216 -0.3187412 0.26623154 0.15550055 0.2944226
-0.22860411 -0.32190755 -0.30298242 -0.29648444 0.18292135 -0.046780292 -0.030637285 0.16237289
-0.10978999 0.29902133 0.21303236 -0.21326314 -0.3293478 0.33885893 0.116212934 0.29931152
0.24981588 0.1027707 -0.25448588 0.17516162 -0.17436318 0.0054000765 -0.111952625 -0.072281055
-0.18363528 -0.33322033 0.12742314 0.032523755 -0.073397174 0.030874833 -0.24938454 0.026983917
-0.24647202 -0.021873659 0.14059791 0.23376876 -0.31401977 0.18820664 -0.28573766 -0.007832393

encoder.0.bias f4 [16]
00000000: e0c9 94be a243 5dbe af43 a2bc 851d cabc
00000010: dd91 54be b6ef 1b3d d6ac 6c3e f64c 98be
00000020: dcb9 1cbe fbd1 d53a 73fc 0abe ad82 a0be
00000030: 8210 cabd 4e62 223b 46f8 cc3d c1ae c63d
-0.29060268 -0.21607831 -0.019807665 -0.02467228 -0.20758767 0.038070403 0.23112807 -0.29746217
-0.15305275 0.0016313189 -0.13572864 -0.31349698 -0.0986643 0.0024777832 0.10008292 0.097013004

encoder.2.weight f4 [32, 16, 3, 3]
00000000: 45da 7a3d 3908 07bd 9d16 5a3d 82bf 983c
00000010: 1445 ed3c b612 c43d 3cf8 c33d b031 c63d
00000020: 40b2 1bbd e899 2abd b07d 6f3d dbc1 c53c
00000030: fb53 76bc 382b debc 9a67 a93d 5f1b ceba
00000040: 5ad0 cb3d 93e3 0e3d c8a0 673d daf8 e2bc
00000050: 5c7c bb3d 1aa0 723d cbba e43d ef21 9b3d
00000060: 0480 8cbc 3545 a73d 1d68 093d d751 22bd
00000070: f56f d53d 25ae 30bc 75ec e13d bee6 19bc
00000080: ca6e 20bd 7f1b 353d c1bf ad3c 3ffd 0e3d
00000090: 57ee cd3d 0850 9f3d db87 b23c a946 df3d
000000a0: 5a99 323d e124 6e3d e0ee b43c 0b19 3ebc
000000b0: 9b31 f03d 34a4 263d 11ab 473d 8278 de3d
000000c0: 8fbf 9a3d dc68 ef3d b552 a03c 7419 643c
000000d0: ae87 ae3d de4a 663d 0592 a13d 072d 8239
000000e0: 58fe f33d 207a b43d df5f 893d 1a1f f93b
000000f0: 5a55 24bd a598 313c 243c 0ebd c958 33bd
00000100: 26c7 283c f960 eabc 3dca 283d 0310 05bd
00000110: 609c cc3d 46b7 b03c 149a 8a3d 78eb d53c
00000120: 2c73 053d 4ea9 d63d 7331 bb3d 66ec 8c3a
00000130: fbc9 2cbc 359c 753d b866 163d 480b b73d
00000140: 33a6 bd3d 5010 2dbd 94da 893d 17a4 ac3d
00000150: 8e9e 1e3d fe5d b13d 4dd3 64bb 4a0c b1bc
00000160: 3a31 efbb ab03 a13d 3d80 b73d 30a3 a93a
00000170: 8fdc 233d 5dc3 4f3d 179d 3dbd 5359 e93d
00000180: 9879 9f3d 5915 f43d 6e24 833d 3c9e 38bc
00000190: 9e42 e2bb fd7c 173d 41f2 4cbd 0c0e 583d
000001a0: b8bb 29bd d9fc 8f3d 7b7d 9a3d bba6 6cbd
000001b0: db8a 5f3d 3e46 c83d 0456 0cbc c622 e13d
000001c0: 9fba 753d 36bc 1cbc 226e b13d cb0e c13d
000001d0: e00b 4a3d e097 ba3d fe15 eebc 1e44 883d
000001e0: 2faa 203d 9983 943d b714 033d 7b98 e13d
000001f0: 7a83 aa3d be5e e03c 1791 ce3d cf87 15bc
00000200: b393 fb3c 3c75 573c 65c4 863d f44f 56bb
00000210: eba9 3c3d 23e3 523d 0cf5 2bbd d82a 9f3d
00000220: 816a 483c c52e 963d 76c9 16bd e3cf adbb
00000230: 355b fdbc 3d90 563b 434f 763c a14b 6c3c
00000240: 3788 943d 640b 623d c809 5dbd 5895 f33c
00000250: 6488 443c 6b26 df3b 1f9e 383c f42e 5ebd
00000260: 7b63 5dbd 317c 82bd 41ad b1bd 08b2 2dbd
00000270: 8139 7dbd 7015 83bd 0594 2dbd ca93 20bd
00000280: 6c94 afbd 1b43 10bd 2c93 9bbd 3f76 643d
00000290: 6231 953d 7bcc 583d dfa4 063d d5e6 bdbd
000002a0: 71a0 903d c4cf 21bb c050 d03b 6c63 5c3d
000002b0: 25a0 bfbc f71a 64bd 446d 6cbd 6343 d2bc
000002c0: 16e5 7dbd c30d b6bd b192 30bd b898 1dbd
000002d0: 9e4b babd 39c1 67bd fca2 b1bd b5d1 2cbd
000002e0: 694d a0bd 9505 7e3d 954b 353d 3d05 94bd
000002f0: f21f 463d a819 96bd 9dc8 9bbb 4a57 54bc
00000300: 7b6e 063d e9cb 5c3d 6fd5 b3bd 053b ac3b
00000310: 4c2d b9bd 0875 febc 1846 b53c 514d 8f3b
00000320: 972d 2f3d d129 b3bd e00c 82bd c85e b6bd
00000330: 0173 df3c 630f a1bd aaa9 04bd bc12 9d3d
00000340: 4cb7 8ebd bff6 a5bd f768 6c3d 9757 6a3d
00000350: 79cb e13c b0fb 9f3c 4048 d2bb 968c e83b
00000360: 8858 a7bd 1780 54bb 7dae 13bd 99a0 6abd
00000370: b1b7 92bc b7f9 82bd 5a26 9bbc 1c4d 71bd
00000380: 7f98 8c3d 8fc6 9cbd f9f9 793d 2f5e babd
00000390: 956a a5bd 7beb 93bd bfe8 89bd c8dd 48bd
000003a0: 6bed 73bc 1179 94bd 59f6 49bd 3d23 863d
000003b0: 6932 d93c 2101 95bd e0d1 21bc c78c 3f3d
000003c0: b5d1 1ebd 9aa1 493d 4d3f cc3b bc12 803a
000003d0: 310b 82bb ee16 6cbc e7a1 f7ba 7a26 aebd
000003e0: 23bd eebb ce1c adbc eb28 19bd 6473 1b3c
000003f0: f2d7 c8bc 927e 9ebd ff84 783c fc1a c3bd
0.061243314 -0.032966826 0.053244222 0.018646006 0.028963603 0.09573881 0.09568831 0.09677446
-0.03801179 -0.041650683 0.058469474 0.024140289 -0.015034671 -0.027120218 0.082717136 -0.001572471
0.09951849 0.034885 0.056549817 -0.027706552 0.09154579 0.059234716 0.111684404 0.07574832
-0.017150886 0.08167497 0.033546556 -0.03962883 0.10421745 -0.010783707 0.11031429 -0.009393392
-0.039168157 0.044215675 0.0212096 0.034909483 0.10055225 0.077789366 0.021793297 0.10902149
0.04360328 0.05814064 0.02208656 -0.01160265 0.117282115 0.04068394 0.048747126 0.10862829
0.07556068 0.11689922 0.019570688 0.013922084 0.085219726 0.056223743 0.07889179 0.0002482908
0.119137466 0.08812356 0.06707739 0.0076025845 -0.04012046 0.010839616 -0.034725323 -0.043785844
0.010301387 -0.028610693 0.041208494 -0.032485973 0.09990764 0.021571767 0.06767669 0.026113257
0.03258054 0.10481511 0.09140291 0.0010751605 -0.010546203 0.059963424 0.036719054 0.089376986
0.092602156 -0.042251885 0.067311436 0.08429735 0.03872543 0.08660506 -0.0034915984 -0.021612305
-0.0072995694 0.07862028 0.089600064 0.001294231 0.040005263 0.050723422 -0.04629239 0.1139399
0.07786864 0.11918134 0.06403433 -0.011268195 -0.006904914 0.036984432 -0.05003572 0.05274777
-0.04143879 0.07030649 0.07543465 -0.057776194 0.054575782 0.09779023 -0.00856543 0.10992961
0.05999243 -0.009566357 0.08663584 0.0942665 0.04932773 0.09110999 -0.029063221 0.06653617
0.0392248 0.07251663 0.032002177 0.110154115 0.083258584 0.027388927 0.100862674 -0.009126618
0.030710077 0.013150509 0.06580428 -0.0032701464 0.046060484 0.051486146 -0.04198174 0.07771844
0.012232424 0.07333139 -0.036813222 -0.005304323 -0.03092728 0.0032739781 0.015033546 0.014422328
0.072525434 0.055186644 -0.053964406 0.029734299 0.011995409 0.0068099997 0.011268168 -0.054243997
-0.05404995 -0.06371344 -0.08675624 -0.042406112 -0.061822418 -0.06400573 -0.04237749 -0.039203443
-0.08573231 -0.035220247 -0.0759643 0.05577683 0.0728481 0.052929383 0.032872077 -0.09272543
0.07061852 -0.0024690488 0.0063572824 0.053805754 -0.023391793 -0.05568978 -0.05772139 -0.025666898
-0.06198605 -0.088893436 -0.043108646 -0.038475722 -0.09096454 -0.056580756 -0.08673665 -0.04219218
-0.07827265 0.062017042 0.044261534 -0.072275616 0.04837031 -0.07329112 -0.0047541396 -0.012960264
0.032820206 0.0539054 -0.087809436 0.005256059 -0.09041843 -0.031061664 0.02212815 0.0043732305
0.042768087 -0.0874821 -0.06350112 -0.08904797 0.027276518 -0.07864263 -0.032388367 0.07669589
-0.06968555 -0.08103704 0.05771729 0.05721244 0.027562844 0.019529194 -0.0064173043 0.0070968373
-0.08171183 -0.003242498 -0.036055077 -0.057282064 -0.017909857 -0.063952856 -0.018939186 -0.058911428
0.06865024 -0.076550595 0.061029408 -0.09099995 -0.080769695 -0.07222649 -0.06733846 -0.049039632
-0.014888148 -0.07249654 -0.0493072 0.0654969 0.026513295 -0.07275606 -0.009876698 0.046765115
-0.03877421 0.04922638 0.006233132 0.0009771208 -0.0039686193 -0.014409764 -0.0018892855 -0.085034326
-0.0072857304 -0.0211319 -0.037392538 0.0094879605 -0.024517033 -0.07738985 0.0151684275 -0.09526631

encoder.2.bias f4 [32]
00000000: 4c51 643d 3169 1f3d d814 02bd e874 b03d
00000010: 8b6e 183c b069 d7bc 7afb 943d 6b49 4fbd
00000020: 1486 54bc bae1 ef3d b411 5d3d a74c 163c
00000030: d0de 7a3c b39a 863d 7c6a 96ba 0e53 9fbc
00000040: 4760 e6bb 9566 903c 6813 053d 922f cc3b
00000050: 56d5 f7bc 5290 1e3c a2e4 763d 0a82 c8bc
00000060: e6c8 38bd 95c9 313d 410c 613c b13b cc3d
00000070: f341 423d 3ed2 eb3b dd82 48bd 4589 843d
0.055741593 0.038918678 -0.03175816 0.08616048 0.009303699 -0.026295513 0.07274528 -0.050607126
-0.01297142 0.11712976 0.05397196 0.009173549 0.015311912 0.06572475 -0.0011475827 -0.019448783
-0.00703052 0.01762704 0.03248921 0.0062312568 -0.030253094 0.009677963 0.060276635 -0.02447607
-0.045113467 0.043405134 0.013735832 0.09972323 0.047426175 0.0071966937 -0.048952926 0.064714946

decoder.0.weight f4 [16, 32, 3, 3]
00000000: 6e17 0b3d 7e9c 3d3d 52f2 7a3d 1d88 413b
00000010: b2c9 733c 9f00 ac3c 7356 953d 808f 963d
00000020: 07df e83b 0820 043d 5bd1 26bd 69fd 093c
00000030: af91 7cbb c85b d83c f89f 113d 7d31 403d
00000040: 897c 833d 63c0 acbb 5b97 17bd 9033 933c
00000050: a570 993b 4d77 483d 9e75 9f3b 6640 1abd
00000060: c379 01bc d678 49bc 98fc 1dbd 97c6 9d3d
00000070: c0f2 743d 8ab6 b93c 57ba 943c ec86 3d3c
00000080: 82ba 133a a11b 233d c352 aabb 88cc a43d
00000090: cac1 6c3d 7722 cc3c cf95 34bc 3ea7 bb3c
000000a0: 4f59 663c e637 943c c5a7 8abc 8c20 8dbc
000000b0: 1e11 a23d 64fa e0ba aa55 7d3d 0b9b d13c
000000c0: 83ce b13d 957d 803d 1ced 8a3d 70e9 b4bb
000000d0: 6aa7 3e3c 90ba 3f3c 917c 36ba 755b b43d
000000e0: f215 173c f03f c23d a54a 243c 6bf7 903d
000000f0: adc2 f03c 5ddf afbc ca87 0a3c 4144 2dbd
00000100: 3734 fe3c 4a76 11bd 7713 133d 0f6d 7a3d
00000110: cd88 483d 2312 01bd edd4 17bc 8433 cabc
00000120: 6efc c33d b01c 453d 27a5 12bc a518 6c3c
00000130: 32fc b33d 2be7 aa3d 0bb4 3e3d 5f48 88bc
00000140: 5cd4 b73b e326 f93a 4a0b 84bc cbff 9d3d
00000150: da62 9e3d 6b22 e73c 28b0 393d 39bb a03d
00000160: c55f 983c c33a 2c3c 25de 2e3c c83c ffba
00000170: 0944 973d e894 b23d 4c55 913d 328d a43d
00000180: 0423 a73d 8be2 ae3d 5660 373d 048f 0dbc
00000190: 529a a23c 1f45 3bbc 183a 843c f702 28ba
000001a0: 4a3b 3a3d 1656 413d a91e a43d 8408 e43b
000001b0: d74c 6f3d bd18 8b3d 77b0 993d 6b6a ac3d
000001c0: dad4 ec3d 1c91 cc3d 4d34 dc3d 4fd5 113d
000001d0: 006a 023e e511 9c3d cd01 7a3c 8db7 7d3d
000001e0: ce55 793d 7217 aa3c b680 aa3d 7e01 ba3d
000001f0: a0ac 823d 64ec bd3d 3d6c 7e3c fe16 23bc
00000200: 09aa 383d 71aa 82bc 695f 953d 8b72 eaba
00000210: 5d1a 983d 14bb 8f3c a914 8ebc f150 a63d
00000220: 48fb 50bc 828e 593c 036b 913d 6c6e be3d
00000230: fb87 9d3d 53dd f13b a46d 61bb fe12 d63c
00000240: d76c c6bb 1f27 623d 5773 983d a08d e039
00000250: 944b c13c 59e0 bb3b 7f99 a63c e324 c13d
00000260: 7c1e ec3c fcec f73c 2aef 8e3d 9277 6f3d
00000270: f827 403d b535 e43b 5419 303d 243f 643d
00000280: fa1b aa3d bec9 003d 48a3 003d ab59 9abc
00000290: 90cd 3e3d d4c7 9a3d d2d5 493c 2ab2 103d
000002a0: db06 8cbc f130 f23c c38f 863d 3849 9d3d
000002b0: 0347 863d 01df 5f3d 6362 cd3c d471 b73c
000002c0: 9728 d23c e5c1 3abc 0697 763d 048f 8c3d
000002d0: 129b d13c 5ce8 983c 0a7a aa3d 18f0 5d3d
000002e0: 059e 923c d23e 183d fcbf 633d dda5 543c
000002f0: 49f7 5f3d ce90 833d a7be d93c 9fdd debb
00000300: cc80 c5b3 afe5 d93c ef6c aa3d 50c1 493d
00000310: 748b 453d 81af ce3a 40e0 0ebc 90dc 94bc
00000320: 0064 983d af30 843d 424b 443d efa6 a03d
00000330: 28d2 36bc d1fe 853d 4183 c73d 5aae 813d
00000340: 47a2 9a3d 7aa0 b93d f442 a33c 961e 02bc
00000350: 1e8e c13c 0bf6 da37 4621 f13c c408 fbbb
00000360: 512d 8d3d 10b2 883d c1f8 5a3d dd1d 143c
00000370: 3e74 b53d f243 b43d a792 713c db63 6e3d
00000380: ef96 76bc cadf c63c c70c 233c 4c7f a83d
00000390: 8e16 703d 68a3 9c3d f20d 5b3d fb34 c13c
000003a0: b70c 123d 5722 323d 43a9 fb3c a9e1 b93d
000003b0: 4069 493b eb2e a3bb c2d9 ac3d 8313 863c
000003c0: 479a a23d 7e57 103c 3d8f 403d 386c 83bc
000003d0: 8faf a53d 39de 483d 98da 85ba 90ed 6fbb
000003e0: 513f 4c3d 680b 4b3c 1d74 ee3c ef53 da3c
000003f0: 574d 373d 146d 403c 1153 1d3d 94d4 2c3d
0.03395789 0.04629182 0.06126625 0.0029530593 0.014879631 0.02099639 0.072918795 0.07351589
0.007106665 0.03225711 -0.040727 0.008422234 -0.0038538983 0.026410952 0.03555295 0.046922196
0.064202376 -0.0052719577 -0.03700958 0.017968923 0.0046826177 0.0489419 0.004866316 -0.03765907
-0.007902565 -0.012296876 -0.03857097 0.07703894 0.059801817 0.02267005 0.01815526 0.011567812
0.0005635397 0.03982127 -0.0051978542 0.08046824 0.057802 0.024918778 -0.011022045 0.022906896
0.014059379 0.01809306 -0.016925702 -0.017227434 0.07913421 -0.0017164466 0.061849274 0.025586626
0.08681967 0.06273953 0.06783506 -0.005520992 0.011636594 0.011702195 -0.0006961311 0.088065065
0.009221541 0.09484851 0.010027562 0.07078441 0.029389704 -0.021468813 0.008455226 -0.04230142
0.031030757 -0.0355132 0.035907235 0.061139163 0.04895859 -0.031511437 -0.009267074 -0.024682768
0.095696315 0.04812306 -0.008950508 0.014410173 0.08788337 0.08344873 0.04655842 -0.016636072
0.005610032 0.0019008782 -0.016118664 0.07714804 0.07733698 0.028214654 0.04533401 0.0784821
0.018600354 0.010512057 0.010673081 -0.001947307 0.073860236 0.08719808 0.07096347 0.08034743
0.081609756 0.085393034 0.044769607 -0.008640055 0.019848976 -0.011430054 0.016140983 -0.0006409133
0.0454667 0.04720124 0.080136605 0.006959023 0.05842289 0.06791828 0.07504361 0.08418735
0.11564036 0.09988615 0.10752163 0.035603818 0.12735748 0.076206006 0.015259218 0.061942626
0.060872845 0.020763133 0.08325331 0.09082316 0.06380582 0.092736036 0.015528736 -0.009954212
0.045084033 -0.015950413 0.07293589 -0.001788692 0.074269034 0.01754526 -0.017343836 0.08120907
-0.012755223 0.013278605 0.07100489 0.09298405 0.07691952 0.00738112 -0.0034397626 0.026132103
-0.006055455 0.05521309 0.07443874 0.00042830128 0.023595609 0.0057335314 0.020336865 0.09430864
0.02882313 0.03026437 0.06979211 0.05846364 0.046913117 0.00696441 0.042992905 0.055724278
0.08306117 0.031442396 0.031405717 -0.018841585 0.04658276 0.075576454 0.012319045 0.03532616
-0.017093113 0.029564353 0.06570389 0.07679981 0.06556513 0.054656032 0.025071329 0.022393145
0.02565412 -0.011398767 0.06020262 0.068632156 0.025586639 0.018665485 0.08324058 0.05418405
0.017897615 0.037169285 0.055603012 0.012978998 0.05467919 0.06424104 0.026580168 -0.0068013216
-9.1969554e-08 0.02659878 0.08321559 0.049256623 0.048228696 0.0015768857 -0.008720458 -0.018171579
0.074409485 0.06454598 0.047923334 0.0784434 -0.011158504 0.06542743 0.097418316 0.06332083
0.07550483 0.090638116 0.019929387 -0.007941863 0.023627337 2.6102198e-05 0.029434811 -0.007660957
0.06893409 0.06674588 0.053459886 0.009040323 0.08860062 0.08802022 0.014744437 0.0582007
-0.015050634 0.024276633 0.009951777 0.08227405 0.05861526 0.07648355 0.053480096 0.023584833
0.035656657 0.04348978 0.030720359 0.090762444 0.00307329 -0.0049799583 0.084399715 0.016366726
0.07939582 0.008809922 0.047011603 -0.016042814 0.08090126 0.049040053 -0.0010212241 -0.0036610104
0.04986507 0.012392856 0.029108102 0.02665135 0.04475149 0.011744756 0.038409296 0.042194918

decoder.0.bias f4 [16]
00000000: 04b0 af3d 3daa bd3c 14bd 8b3d 9e55 803c
00000010: c1ba b5bc 2c1f bb3c ad95 313d 7f68 0fbd
00000020: adb7 b83c f056 a23d f3d7 8c3d 192b a13d
00000030: 76f5 293c 434b 9dbc f83f 8a3d 7f92 1ebc
0.08578494 0.023152465 0.06823173 0.015665825 -0.022183778 0.022842012 0.043355633 -0.035011765
0.022548521 0.07926738 0.068771265 0.07869548 0.010373464 -0.019200927 0.06750482 -0.009678482

decoder.2.weight f4 [1, 16, 3, 3]
00000000: 6c68 ee3c eb71 e5bd f26e 6ebd cc96 ecbd
00000010: 7fa6 c3bb 9df8 e4bd 0c0a 183d 564d 463b
00000020: b720 9bbc ebdc 323c 6854 8dbd d796 a1bd
00000030: 9ebe 84bd dd54 35bd 6fa5 3f3a 5342 27bd
00000040: 0ca5 3fbd 1124 df3b 3675 6e3c 48a3 8bbc
00000050: 31de 48bd 658c c2bd f318 8dbd 9288 2f3d
00000060: 5c4d d1bd ac40 9b3c 5cfa cabd a2cb 4b3d
00000070: de05 863d 1770 953d 3c9f 723d bf0a 68bd
00000080: e1f8 033c adbb 8dbc fb16 513d 830a 883b
00000090: ae48 003d f3e6 843d fbad 603d e61b 8a3c
000000a0: 21be 02bd 5c88 2e3d ae57 163c 96f9 40bd
000000b0: f823 753d a806 a9bd ad26 6fbc 0633 b4bd
000000c0: aec2 92bd f817 903b d90e 83bd 32d8 fd3c
000000d0: faed 73bd 0d53 9ebd d833 b53b a458 80bd
000000e0: cda7 8ebd 163e b2bd 5ab2 ef3c ea30 afbd
000000f0: 1ceb ccbd 681b fdbc fff3 10bd 4b64 293d
00000100: 0b9a 9c3d 3ce5 263d ecb2 a6bd fad3 0b3d
00000110: 7a93 923d 1fb4 763d b433 90bb 9e0c 3e3d
00000120: 35b9 3d3c 43b9 4f3d 2317 f53c 748e 28bd
00000130: c3a6 c6bd d21c 40bd 8c4c 9bbd b1af 13bd
00000140: 5e26 90bd 2e10 2abd effd 67bd e214 f33c
00000150: 04ea 7abd b2d0 21be 2c2c 45bd 8dbd 163b
00000160: 09f2 cabd 1372 95bd 2997 b43c d137 8abd
00000170: 442c 6bbd 0725 5fbd 591e d4bd bb10 debd
00000180: c7cd 9cbd cc1d dd3c 721c 32bd be39 d7bd
00000190: f941 f5bd 7358 abbd cd82 79bd 323a b1ba
000001a0: cfca 40bd a0dc 0e3d 4e0b d53c 85aa 28bc
000001b0: 5b23 8bbd 686b afbb a454 8fbd 46d2 f6bd
000001c0: 164f eebc a17e 8cbd 6d58 b2bd e570 ee3c
000001d0: 87d1 9bbd 3573 eb3c 54c8 babc fcc1 aebd
000001e0: 984b 723d 4628 253d be01 91bd 63e5 a1bd
000001f0: 354c 773d abcf 203c 2b38 41bd 7e13 30bd
00000200: 8b91 49bd 10a2 cdbd 86ef 94bd e7d4 50bd
00000210: b9ca 043d 31e1 c4bd 3414 ccbb 0b55 10bd
00000220: bfc8 a4bd 3dde 883c 72df 90bc dd45 c4b9
00000230: 36a7 093c b027 3e3d fe45 303d 0b2f f13c
0.029102527 -0.11203369 -0.058211274 -0.115522 -0.0059707756 -0.11180232 0.037118956 0.0030258498
-0.018936498 0.010916929 -0.06900865 -0.078900985 -0.0648167 -0.044270385 0.00073107233 -0.040834736
-0.04678826 0.0068097194 0.014554312 -0.017045632 -0.049040023 -0.094994344 -0.06889524 0.042854853
-0.10219833 0.018951736 -0.099110335 0.049754746 0.06544088 0.0729677 0.05923389 -0.056650873
0.008054943 -0.017301405 0.051047307 0.0041516437 0.031319313 0.064893626 0.05485342 0.016859006
-0.031919602 0.04261051 0.009176178 -0.047113024 0.059848756 -0.08253223 -0.014596623 -0.087987944
-0.071660385 0.0043973885 -0.06399316 0.030986879 -0.059553124 -0.077306844 0.005529862 -0.06266907
-0.06965599 -0.08703248 0.02925985 -0.085542515 -0.10005781 -0.030896857 -0.035388943 0.041355412
0.07646569 0.04074596 -0.081395954 0.034137703 0.07157035 0.06023037 -0.0044006947 0.04639875
0.011579801 0.05071379 0.029918259 -0.04115148 -0.09699776 -0.046902485 -0.075829595 -0.036056224
-0.07038568 -0.041519336 -0.056638654 0.029673044 -0.06125833 -0.15802267 -0.04813783 0.0023001165
-0.09909446 -0.072971486 0.022044735 -0.067489274 -0.057415262 -0.05447867 -0.10357351 -0.10843035
-0.076564364 0.026991747 -0.04348416 -0.1050906 -0.11975474 -0.0836648 -0.060915757 -0.0013521372
-0.047068413 0.034878373 0.026006367 -0.010294561 -0.06793853 -0.00535338 -0.06998566 -0.12051825
-0.029090445 -0.0686009 -0.08708272 0.029106567 -0.076083235 0.028741458 -0.022800602 -0.08533093
0.059154123 0.04032161 -0.070804104 -0.0790508 0.06037541 0.009815137 -0.047172707 -0.04298734
-0.049211066 -0.100406766 -0.07272248 -0.05098429 0.032419894 -0.09613264 -0.0062279943 -0.035237353
-0.08046102 0.016707534 -0.017684672 -0.00037436085 0.008401683 0.046424568 0.0430355 0.029441377
